models/qgHE4bOCbQAs/Theta_yz.npz (npz, 2151 bytes, 1 tensors)

data f8 [117]
0	0xbfe25396fe1c4c85	-0.572703834829
1	0xbfe2ec268b49b5d2	-0.591326973006
2	0xbfe4de09b1d0f5c8	-0.652104232118
3	0xbfd599b56b4a54ea	-0.337506632591
4	0xbfd109044e085242	-0.266175342754
5	0xbfd452e7571512b8	-0.317560038606
6	0x3fc499d94916f665	0.160945091904
7	0xbfb98228ed49241f	-0.0996423320113
8	0xbfd844e82074e9a9	-0.379205733963
9	0xbfbf7cbaf3ba5713	-0.122996983055
10	0xbfcf4677afbe40c4	-0.244337998211
11	0xbfab9cfd9ca076db	-0.0539321187682
12	0xbfe9b0ebd1c29c95	-0.802846822441
13	0xbfcb53674b566c99	-0.213482772623
14	0xbfc7b078421fabbd	-0.185072929656
15	0x3f9100741e891833	0.0166032928121
16	0xbfb1d48a48b2bde2	-0.0696493556486
17	0x3fa3ac987947d686	0.0384261749313
18	0xbfcf539712a1a0c6	-0.244738468263
19	0xbfb88cd83e9ce075	-0.0958991196502
20	0xbfd1d730f57b42eb	-0.278759231308
21	0xbfabfe103cf1a3c0	-0.0546727251429
22	0x3fcbd1cbc5178abe	0.217339965092
23	0xbfcb02c0e1db8dda	-0.211021528513
24	0x3fa2b0b209fa32cf	0.0365043294124
25	0x3f90693160052b6a	0.0160262789589
26	0x3fc1a891c8cc603e	0.137956831976
27	0x3fba3ac766bc63a7	0.10245939501
28	0x3fd1b9dc026b1ee0	0.276968958246
29	0x3fbe4f15413adb76	0.118394211221
30	0x3f8253b412b32d8a	0.00894871408527
31	0xbfdbd90827a1803a	-0.435121573164
32	0x3fd1cb5cce4bbc28	0.278037263356
33	0x3fbd42cb32fa1672	0.11430044169
34	0xbfc4744a3ae0254a	-0.159798887966
35	0xbf87b9f3ca6b0e64	-0.0115851446293
36	0xbfc21c26e2f650e3	-0.141484127828
37	0xbfa7b4abf7480b7c	-0.0463002910001
38	0xbfab96aa4ef37507	-0.0538838597656
39	0xbfa8527f15d11110	-0.0475043977863
40	0x3fc022e67ec9aae4	0.126065074833
41	0xbfcba774a0eb25ce	-0.216047838758
42	0xbfa2fc308dc226dc	-0.0370803044362
43	0x3fc37cbdcb9f2c3b	0.152244305062
44	0xbfc8191054253717	-0.188264885985
45	0xbfa6e198d9fb37f5	-0.0446899190989
46	0xbfa856e9317fa4a7	-0.0475380776332
47	0xbfcf328836303145	-0.243729616603
48	0x3fc437dffc56cff7	0.157955167973
49	0x3f9ec1306efb5e1a	0.030033833288
50	0x3fce8374f655f5c6	0.238386745721
51	0x3fc01fee0db5c1f3	0.125974423117
52	0x3fc1f5c39992a3b4	0.140312623965
53	0x3fa5e8e403ef790c	0.0427924399189
54	0x3fc9a29eb14f239a	0.20027526529
55	0xbfc5dde6afbc0bb0	-0.170834384735
56	0xbfc1407c01aaa9c3	-0.134780407728
57	0xbfa661d5e7f9f15c	-0.0437151761698
58	0x3f5a44b493795ed8	0.00160329470045
59	0x3fcea09e616c5c38	0.239276692934
60	0x3fc801fdef3b2345	0.187560788929
61	0xbfc05da671b2fde4	-0.127857976453
62	0xbfbc2163f9fd3080	-0.109884499104
63	0x3f95b27801c15f5f	0.0211886168548
64	0x3f8295a87257e873	0.00907451247166
65	0x3fd2312ea3adde75	0.284251842349
66	0x3fd38bb1cd2660f8	0.305401277868
67	0xbfc184fd51d86d72	-0.136871018375
68	0x3fb00f72a84038f2	0.0627357159394
69	0x3fca1a1b3778b482	0.203921701513
70	0xbfa89fb738d0dae4	-0.0480935341697
71	0xbfbf25dd5aa680f1	-0.121671518928
72	0x3fd25b8f04e010f4	0.286838297616
73	0x3f9269a7c465fbe4	0.0179811681387
74	0x3f8ff42d450e18b4	0.0156024491023
75	0xbf9ed7b4dde3be1b	-0.0301197300368
76	0x3fbba67af0a5985d	0.108009036781
77	0xbfbe4f01f2ef0936	-0.118393060503
78	0xbf9f74032b0bc338	-0.0307159895919
79	0xbfb15cedec3392f5	-0.0678242398895
80	0xbfb6af9ac2e312d6	-0.0886170125769
81	0xbf9e53613efadff9	-0.0296149439516
82	0x3fa07d931db196f4	0.0322080587146
83	0x3fcb81d5ea1d63c0	0.214899768175
84	0x3f9d8bb9f5f63442	0.0288533264516
85	0x3fb2ce3ee4593d1f	0.0734595592014
86	0x3fd2ccf84d235585	0.293760371523
87	0xbf93e8e0d6a5ee1d	-0.0194430476199
88	0x3fc822194f0e711c	0.188540614702
89	0x3fc5309a2528a659	0.165545719284
90	0x3fb1fd0d8924f399	0.0702675304246
91	0xbfb1ebc2063b1717	-0.0700036301815
92	0x3fc5334929f0ffcc	0.165627618293
93	0x3fb9799d96d0b31c	0.0995119565202
94	0x3f84c15c6b9b2f2e	0.0101344318713
95	0x3fc177cb0d612b46	0.136468297513
96	0x3fca6af9e4a3c2a7	0.206389652863
97	0xbfb228440d55d311	-0.0709269077832
98	0x3fb0a252a1e098d6	0.064976849099
99	0x3fadae41c6336628	0.057970099873
100	0x3f9786fb3c6c226f	0.0229758506421
101	0x3fc0861129fc74bf	0.129091401578
102	0x3f626d558ffc23b7	0.00224940024771
103	0x3fc81f1acce5147a	0.188449239775
104	0xbfb804982366fe37	-0.093820103305
105	0x3fa87166ab78dea4	0.0477401813809
106	0x3fb6097e0e577c0f	0.086082342626
107	0x3fd41673d6f4e192	0.313870391768
108	0x3f712220005314dd	0.00418293476577
109	0x3fd12dd1c55428d7	0.268421595291
110	0x3fa0d9dab7e45589	0.0329120969274
111	0xbfddc0c5814c7ff7	-0.464890838879
112	0x3fb036ea346d0565	0.0633379343026
113	0x3f9661cc02de41ed	0.0218574406386
114	0x3fa3dc488f70a375	0.0387900042627
115	0x3fd0b626f9183ca1	0.261117690331
116	0xbfbf96cddb91b94f	-0.123394838434
