models/Qgvzy0V1y177/Theta_yz.npz (npz, 3738 bytes, 1 tensors)

data f8 [291]
0	0xbfe6c2967ddf6ca0	-0.711253400655
1	0xbfe0639ec68f0aa4	-0.512160671053
2	0xbfe9db3b93164f72	-0.808011805801
3	0xbf887cdf0ebc46ac	-0.0119569231388
4	0xbfc7ebc36ca555e5	-0.186882427263
5	0xbfc635a35d4f89b0	-0.173511906206
6	0xbfd27cc22ce5a658	-0.288864654393
7	0xbf9dfb1875bac140	-0.0292781659943
8	0x3fb0245f6167d1f7	0.0630550015265
9	0x3fb23ffc89d7b405	0.0712888561754
10	0xbfda19013cc2d685	-0.407776173913
11	0xbfa7c07ed05da948	-0.0463904980996
12	0xbfd1f5986903cf0c	-0.280614950708
13	0x3f84aadc37f8c09f	0.0100915150243
14	0xbfd07ce1c0a70fdc	-0.257622182977
15	0xbf99b00a0996b797	-0.0250855987885
16	0xbfefa52ca2230ce4	-0.988912884401
17	0xbfd5e05b4727f78b	-0.34181863736
18	0xbfc00c492137d287	-0.125374928684
19	0x3fcfa9b48e6a9265	0.247366494693
20	0x3fa7879e9c7867a5	0.0459565702442
21	0xbfc5cb0a33a114a0	-0.170258784494
22	0x3f8a22e85a3ed06f	0.0127618935147
23	0xbfb252d66560a51b	-0.0715764997009
24	0x3fa26abcc8497a8d	0.0359705919734
25	0xbfcb1b3f3563b0a5	-0.211769009656
26	0xbfb7dfff17db1111	-0.0932616646997
27	0xbfc6be85c3e0bbe6	-0.177689285892
28	0xbfc326ac8d12414b	-0.149617737658
29	0xbf9a8e428d9db953	-0.0259333037315
30	0x3fc5a742b117124d	0.169166885824
31	0xbfad534d5bf56286	-0.0572761702303
32	0xbfacef940f84cb72	-0.0565153378433
33	0x3fb46ee687cf7773	0.079817207486
34	0x3f909e8c849e8fec	0.01622981605
35	0x3fd3f2a25d1f8651	0.31168421835
36	0x3fc083b73515c3a7	0.129019642754
37	0xbf7fb22977ca4d51	-0.0077382678834
38	0xbf9a4e8008e3c326	-0.0256900792528
39	0xbfa3e982f55d5bc3	-0.0388909267919
40	0x3fd376afd4339d3d	0.304119069317
41	0x3fb8a464cbe89a8a	0.0962584493469
42	0x3f9bc9382e129ab0	0.0271347787972
43	0xbfe20f795c10a170	-0.564388923468
44	0xbf5ff199755eeefd	-0.00194969164066
45	0xbfa3d769318e3b7a	-0.0387528298371
46	0xbf1253d5ee66a094	-6.99137995982e-05
47	0x3fd137d6f892dfb1	0.269033186672
48	0xbfba4a9979d00bb5	-0.102700798263
49	0xbf79034ff37da3d1	-0.00610667448914
50	0x3fa54cca99c285ae	0.0416014969535
51	0xbfbf998a95098ebf	-0.123436604868
52	0xbfb8e00d9df28f50	-0.0971687803854
53	0xbf89c901260fa4e7	-0.0125904168835
54	0x3f806eb0113e1ab8	0.00802362015362
55	0xbfc13ac8c8733819	-0.134606454731
56	0x3fad7be01af3bf15	0.0575857193852
57	0xbf7797de1e3abd41	-0.00576006665112
58	0xbf986ca322f46ea0	-0.0238519182286
59	0x3fb33da4763c64f7	0.0751593388235
60	0xbfa017b691fdbbff	-0.0314309170925
61	0xbfb81161c1fc34bf	-0.0940152262303
62	0xbfacc568a5ead3ec	-0.0561936094795
63	0x3fa2ddcf9fa79deb	0.0368485338584
64	0xbfc44d78f2f0059e	-0.158614271757
65	0xbfb9b126f82d8f50	-0.100359378424
66	0xbf96520e1a28bd0b	-0.0217973903147
67	0xbfd1548eb6ffa715	-0.270785978994
68	0xbfb7654d419bbe5b	-0.0913894925286
69	0xbf81fe8eec90ee9f	-0.00878631267016
70	0x3f9d514eb59c3d2d	0.0286304758402
71	0x3fa8edc00b49b9e5	0.0486888898639
72	0xbfc2535f10459083	-0.143169291444
73	0x3fa5eab2b9a1ff5f	0.0428062297442
74	0xbfa34d7e13af38dc	-0.0377005957631
75	0xbfa4efba9a776c73	-0.0408914865072
76	0x3fd027effa80f917	0.252437586434
77	0xbf97fdfea2c272ee	-0.023429850277
78	0x3fba62b7bd0679bc	0.103068812989
79	0x3fcdb5b5782e840f	0.232107814486
80	0xbf872e10547bd7cd	-0.0113183284552
81	0xbfaca9274cd42a12	-0.0559780389104
82	0x3fba158fd7872037	0.101891508216
83	0xbf86d6494ad4155c	-0.0111509061776
84	0x3fa6e9f86a758572	0.0447538022952
85	0x3fc17e95b05741e8	0.136675559143
86	0xbf60fc32e06dce13	-0.00207338272906
87	0x3fc6386cc2f4e1ef	0.173596949762
88	0xbf7f55722778a00f	-0.00764984694937
89	0xbf8339c08c3bb70d	-0.00938749721487
90	0x3fc52ab605ba3a2a	0.165365937039
91	0xbf73ab1a1f8b1bc3	-0.00480184749967
92	0xbfaa6f5c9b56a25f	-0.0516308726904
93	0x3fcc8e9bbb6b9794	0.223102060808
94	0xbfa7165ddbfbf3f9	-0.0450925189052
95	0x3faf9b3e628091d0	0.0617312903635
96	0xbfc2a19360659c27	-0.145555898732
97	0xbf9e82278efe9f3b	-0.0297933751132
98	0xbfa2bd1fdc3b37a4	-0.0365991550767
99	0x3fccefa004db6f9d	0.22606277692
100	0x3fb32a6992b5bfb4	0.0748659117869
101	0x3fd4e89f53240ccd	0.326698142235
102	0xbfcaa56b2eb940da	-0.208173177542
103	0xbfa527f602665983	-0.0413205030374
104	0xbfab08b4da6ccecc	-0.0528008000023
105	0x3fc9e3d1b0d2f41e	0.202264987316
106	0x3fad05db0c2baa7d	0.0566853000981
107	0x3fe048b9098a873f	0.508877295146
108	0xbfb355171e6efb9f	-0.075517125063
109	0xbfc4d81a86f86987	-0.162844959167
110	0x3fc3796a2186e35f	0.15214277875
111	0xbfb81d50d9c6be3c	-0.0941973239594
112	0xbf6fff22253daae5	-0.00390583676374
113	0xbfc351ca05ca5a8f	-0.150933506801
114	0x3f9d0f758450ae4d	0.0283792840966
115	0xbfc11058789f851a	-0.133311327837
116	0xbf4e9ac9f2c06331	-0.000933979613822
117	0x3f8e825bd86b126e	0.0148970771237
118	0x3fb3d99300f8e16a	0.0775386693357
119	0xbf88324f4de58dd6	-0.0118147082946
120	0x3fa104bfd540f2f4	0.0332393596477
121	0x3f736617747dbd9f	0.00473603403212
122	0x3fc3ab287e0817c4	0.153660832919
123	0x3fc1d1813aa737e1	0.139206079139
124	0xbfbac8bad07c05c9	-0.104625392818
125	0xbfd0bcac7237f88e	-0.261515723745
126	0x3fa7b4ef9cbcc053	0.0463023070173
127	0x3f9d233c0ae79421	0.0284547216087
128	0x3faba8531a240cb2	0.0540185899172
129	0xbf9636a11a046b5e	-0.0216927692537
130	0xbfb92c2a694c24aa	-0.0983301646303
131	0x3f72d84147edaf8b	0.00460076809291
132	0xbfa3ef24e52d8e68	-0.0389338998564
133	0x3faa0aa9a918005e	0.0508626002229
134	0xbfb094883c18a736	-0.0647664210052
135	0x3fcb24d84ca1767d	0.212061917703
136	0xbf723ff7e22469c0	-0.00445553616944
137	0xbfb7e242a4e1b933	-0.0932962086242
138	0xbf8d6268dcd48292	-0.0143478577034
139	0x3fc4e129a58cad75	0.163121419749
140	0x3f742b4e672d4830	0.00492411256967
141	0x3fa52dbdc2a985d6	0.0413646030545
142	0xbfbc41fefce7d2d8	-0.110382019753
143	0xbfbebc527091842e	-0.120061066134
144	0x3fbd502d33a01d07	0.114504647354
145	0xbfc83fada543937f	-0.189443307586
146	0xbf961cb62361e341	-0.0215939005943
147	0x3fc1d9564e323e74	0.139445102865
148	0x3f7ff152f69b85f4	0.00779850394767
149	0x3fa4bfd645562a1d	0.0405261001243
150	0x3f94985f5f1c841b	0.0201125051309
151	0xbfb4d6ce258cb3a3	-0.0814026681589
152	0xbfb9f0f581d0c5a0	-0.101332992738
153	0xbfc3af69a9380e3e	-0.153790671946
154	0x3f62ce2ae39f1625	0.00229557396685
155	0xbf7d844b3164f24e	-0.00720624325032
156	0x3fb90f18d160f569	0.0978866110972
157	0x3fc3b422b00efdbb	0.153934799162
158	0xbf905ea413a98b55	-0.0159860264779
159	0xbf9983b8de8cece9	-0.0249165426096
160	0x3fc5866209873282	0.168163542416
161	0xbf97726a21965293	-0.0228973944664
162	0xbf94e4c21f42f9a9	-0.0204038936215
163	0x3fc5f0b60c3e52e4	0.171408420542
164	0x3fc12a878c8efb11	0.134110396988
165	0x3f926b3f334e6d47	0.017987239367
166	0x3f60eef52affff41	0.00206706890458
167	0x3fbdcbce775677ce	0.116391090522
168	0x3fc6cc509530d212	0.178110192153
169	0x3fb03094c4b902f9	0.0632412891655
170	0x3fc49bfef5699690	0.161010618048
171	0x3fb29c190891e3a3	0.0726943632052
172	0xbfb39db5f2151324	-0.0766252246877
173	0x3fb29ae3c91ef3f9	0.0726759305971
174	0x3fb803bd4b06c38b	0.0938070591135
175	0x3fb3cf3d2a14f075	0.0773809650172
176	0xbf95605a028df4ef	-0.0208753646907
177	0x3fb5bb4d09aa1515	0.0848892353625
178	0xbfbd7a9bd49181f0	-0.115152110478
179	0x3fca0af63d16171c	0.203459529712
180	0x3fa5346859ad3ee8	0.0414154633969
181	0x3fc0c39a2e4d4dcc	0.130969307526
182	0xbfa4b9be006be530	-0.0404796004786
183	0xbf94e73c6b0c1769	-0.020413345369
184	0x3fc4f0d2702c0d51	0.163599304935
185	0x3f77850cf624d31f	0.00574212134443
186	0x3f74fc0ce99f4fad	0.00512318653087
187	0xbfa46f002a6a67df	-0.0399093677308
188	0x3fb2e03b6fac7744	0.0737340114251
189	0x3fb071e414b47280	0.0642378378438
190	0x3f96a4c684330f8f	0.0221129434765
191	0x3fc0450504e94066	0.127106311224
192	0x3fbba8b60005a9d8	0.108043074613
193	0xbfc0e5a4a1e69451	-0.132008151105
194	0xbfc0dcf700ffa041	-0.131743312347
195	0x3fc26f7d9151f026	0.144027420003
196	0x3f6892c85b57450c	0.00299967891872
197	0x3fcbbf8b7d91cde8	0.216782985986
198	0x3fbd9b8a6783b249	0.115654611847
199	0x3fabfb0e3ebfbd39	0.0546497775648
200	0x3fb798e866d28aa5	0.0921769381553
201	0xbf86158701e32c28	-0.0107832477046
202	0x3fa27bddeaec39ec	0.0361012791892
203	0xbf645f7ca1cd3b32	-0.00248693792529
204	0xbfb21962789ebd2f	-0.0706998390658
205	0x3fb4f39c26d81f97	0.0818421931109
206	0xbf9b38db46853473	-0.026584078006
207	0x3fafc9c99a8fb9fe	0.0620863915609
208	0xbf9025b473657d3e	-0.0157688327248
209	0x3fb174aa9ea40b14	0.0681864392573
210	0xbf81ce37b42a34d7	-0.00869411009378
211	0x3f909f67ed7c3b52	0.0162330855083
212	0x3fb1e1a4e599776a	0.0698493061586
213	0x3f9bf293337d0c34	0.027292537706
214	0xbfc6331311ea2184	-0.173433669803
215	0x3fab8486060261be	0.0537454492889
216	0x3fc55f72b6d75f97	0.166975344923
217	0xbfb4db3be59bdc06	-0.0814702449387
218	0xbfc2453c1e0c2f36	-0.14273787944
219	0x3fa01f010cd20fcb	0.0314865425253
220	0xbfbc5d70484e3f89	-0.110800759938
221	0xbf73f85e6b80eb92	-0.00487553484714
222	0x3fb38444387c0358	0.0762369764234
223	0x3fa308c24492d14d	0.0371761997898
224	0x3f8a0915ba6ed3f9	0.0127126405258
225	0x3fb3fc8f68582316	0.0780725126025
226	0xbfb7634f62b368e2	-0.0913591018647
227	0x3fb45769d6e78f92	0.0794588231725
228	0xbfb00820bb342847	-0.0626240212479
229	0x3fc4ef661b5e69b4	0.163555873264
230	0x3fa33ec5ea8b5859	0.037588295823
231	0xbf97b72f0142e165	-0.0231597275276
232	0x3f94ee9646ad92aa	0.0204413872374
233	0x3fbe8d0d125b1948	0.119339768392
234	0xbfc512f2fac35c09	-0.164640781825
235	0x3f8bf7151162d8f6	0.0136548658305
236	0xbfc64042889d3487	-0.173836056429
237	0x3fd142d31a7a0647	0.269703651291
238	0xbfacdd81d53bafb2	-0.0563774655146
239	0x3fc151ecf1bb02c8	0.135312669785
240	0x3f81a6ef5ff9b0de	0.00861918460506
241	0xbfb5193bc195f3fd	-0.0824162814733
242	0x3fb00d45e8222eaf	0.0627025310261
243	0x3fc53dc42f721904	0.16594745938
244	0x3fc1c6ee4e51c79e	0.13888338875
245	0x3fcc60f0004b9881	0.221708297867
246	0xbfbcd51ca3bc4775	-0.112626829123
247	0x3fabddc7a23161dd	0.0544264207353
248	0xbfd040347b1725c1	-0.253918762403
249	0xbfbc18cacbdfe613	-0.109753298544
250	0xbf95b6b780b589f9	-0.0212048218067
251	0xbfa773cc9c980f67	-0.0458053532748
252	0x3fb98d5bac978f24	0.0998132034652
253	0xbfa182e4e54a99be	-0.0342017679116
254	0x3fa56aa8ed30966f	0.041829375223
255	0xbfa3c4a5716ef0a3	-0.0386096669167
