models/s6ncmsAs6lwU/Theta_yz.npz (npz, 2764 bytes, 1 tensors)

data f8 [185]
000000 b1 e2 98 85 8d e9 e6 bf 74 eb 95 34 79 c7 d6 bf
       -0.716009865696 -0.355924893716
000010 a7 be 3c 2d 3c 93 e4 bf 49 c9 e0 e0 b7 48 da bf
       -0.642973030428 -0.410688371284
000020 40 64 e2 90 84 c6 cf bf bd 98 02 48 50 86 e2 bf
       -0.248245783562 -0.578895702977
000030 2b 1d 18 df 9c 44 d5 bf d1 85 74 75 e8 94 b5 bf
       -0.332312791696 -0.084303406406
000040 f6 f1 62 14 50 66 6c 3f b2 d7 77 bc 79 7a a4 3f
       0.00346675530008 0.0399969141544
000050 2e ff 13 ee be 5d aa bf 7c d5 be cb 72 45 d4 bf
       -0.0514964738486 -0.316738795252
000060 15 57 73 86 4e 74 d8 bf f0 7b e1 bb 6d e5 bc bf
       -0.382098799991 -0.112875803346
000070 2a bd 91 b8 6e a1 eb bf fb f2 44 99 de 01 bb bf
       -0.863456116187 -0.105497276706
000080 65 49 b1 73 2e 46 a3 bf d2 4c 29 7c 62 9c c1 3f
       -0.0376448169924 0.137584982515
000090 d4 b9 d9 cd 59 35 bf bf d1 3f 0d 8b 8f 8b b4 bf
       -0.121907818562 -0.0802545275194
0000a0 06 3e fd 13 63 d1 cc 3f 86 6e 3a 81 a2 14 bc bf
       0.225139984856 -0.109689861822
0000b0 29 6a 38 9f 3d 9b a9 bf 07 79 4a 63 6a 43 dc bf
       -0.0500125176297 -0.44161472031
0000c0 30 36 1c a0 06 54 81 bf 47 56 29 3e f8 50 90 3f
       -0.00846104789846 0.0159338748875
0000d0 ae 63 57 b8 b7 4b cc bf ce 60 3f c9 da 17 91 bf
       -0.2210607195 -0.0166925607044
0000e0 08 4c fa bf 77 36 b1 bf e8 6b e6 c4 d7 50 a7 3f
       -0.0672373622604 0.045538656984
0000f0 ce d9 cb 9e 0d b6 a2 3f d0 23 85 a0 93 3a 93 3f
       0.0365452057212 0.0187781397556
000100 5b 20 8c 95 2d fe b6 bf f4 0f 88 bb cc b3 b0 3f
       -0.0898159494501 0.0652435262528
000110 a2 da 11 57 3f 46 b3 3f 29 88 25 cd 14 fb 8c bf
       0.0752906405995 -0.014150774489
000120 66 cf 5e 85 6f 02 95 bf 81 8d 40 17 65 0d d4 3f
       -0.0205171036866 0.313317558963
000130 66 b0 ac 20 71 70 c7 3f 4b 5c b8 df 47 cd de bf
       0.183118954615 -0.481279343106
000140 95 a8 4b 10 11 3f 82 bf 73 16 8d 73 f5 6b c7 bf
       -0.008909352598 -0.182982140943
000150 a0 43 1b d4 d6 22 c4 3f b8 05 d3 5b 58 83 81 3f
       0.157313207214 0.00855130224443
000160 7a 42 df 1e 39 9e a7 bf c9 1a 8f dd c9 be 94 3f
       -0.0461290216623 0.0202590505103
000170 ed 5e b9 20 99 c6 a8 3f 03 b5 56 ed d2 56 c4 bf
       0.0483901836821 -0.158899656189
000180 62 94 bc 95 7d 3a c1 bf d7 98 18 76 56 b9 95 3f
       -0.134597490419 0.0212148198681
000190 ab 3b 1c b6 b2 c6 c2 bf 96 47 7b 41 1d 73 c3 3f
       -0.146688784524 0.151950509046
0001a0 96 8c 30 8c e0 62 bc bf 67 54 0b b6 8c 0c c6 bf
       -0.110883745409 -0.172257985009
0001b0 ba ec 81 68 eb 42 a1 bf 53 3c d3 a1 11 a3 c0 bf
       -0.0337136807511 -0.129976467148
0001c0 fe 8c c2 67 8d a3 a7 bf 61 40 33 e4 6e de a1 3f
       -0.0461696805153 0.0349001554074
0001d0 c3 f1 d3 a0 eb 7d ba bf ec 68 95 dd 15 48 d5 3f
       -0.10348389317 0.332524744406
0001e0 cc e6 08 76 99 1f b7 3f 6e 2c 74 35 c1 0a d1 3f
       0.0903259194537 0.266281416131
0001f0 d9 de 9f d3 20 98 94 3f e9 ad 1d 6b 4c 92 bc 3f
       0.0201115731397 0.111607338096
000200 2e d9 94 ec 3d 38 6e 3f 9f 35 e6 31 cc 5c 6e bf
       0.00368892759857 -0.00370635873623
000210 75 34 1a 5c 16 a1 b2 3f 47 20 c4 aa 43 16 82 bf
       0.0727704977855 -0.00883152832877
000220 4c 86 84 d7 c3 ec 90 3f b7 5d ea 9c 2d 3c c8 3f
       0.0165281868259 0.189336492175
000230 0b 88 0e 2d 5a 56 bf bf f1 6c 4b 9a e2 b1 b2 3f
       -0.122411380768 0.0730268122383
000240 2a 13 0e 17 25 77 b6 bf b1 8a 44 1f 73 a1 b6 bf
       -0.0877555066382 -0.0884010268533
000250 f3 dd e0 92 af b6 97 3f 6a 4d 57 e4 87 2b 80 bf
       0.023157828655 -0.00789552846519
000260 e9 04 10 68 c3 e5 d6 3f 8e fd cf bd 23 9e a9 3f
       0.35777363932 0.0500346345143
000270 b3 95 4f b3 dd 6f c6 3f 85 26 e9 58 3b d5 c5 bf
       0.175288879923 -0.170569818891
000280 d2 98 e3 e7 35 9c 9a bf d5 f9 53 1d af 58 99 bf
       -0.0259865210327 -0.0247523652697
000290 91 99 8b 16 bb c3 c4 3f d2 25 bd 46 97 6a 69 bf
       0.16222323037 -0.00310258432538
0002a0 2b 14 45 1e 10 6f c2 3f e1 7c 04 2b 56 5c d2 3f
       0.144014372616 0.286885778436
0002b0 99 68 be 71 73 55 c0 bf b8 3e 20 81 20 4b ad 3f
       -0.127607756175 0.0572137982964
0002c0 58 cc b2 ad 2c fd c3 3f 8f 6b d4 2a b0 cf c9 bf
       0.156163773359 -0.201650639451
0002d0 96 07 2d d3 4e cb a0 bf 64 14 45 e5 0b 81 b3 bf
       -0.0328011162551 -0.0761878428212
0002e0 d2 9f 97 da 56 7b 6c 3f 5a 3a 64 2f 09 b8 ca 3f
       0.00347678149841 0.208741329327
0002f0 27 58 dc 89 0c b1 9b bf cc f0 a2 dd 0f 29 ba 3f
       -0.0270425757545 0.102189056025
000300 d6 90 8a 91 5c 2d b5 bf e1 2f e2 2a b4 37 b1 bf
       -0.0827234130216 -0.0672562222191
000310 72 1e 04 97 1a 45 d1 3f 84 91 3d 48 59 1d b6 3f
       0.269842765309 0.086385326516
000320 62 1a f0 e8 61 16 be 3f 6f dd d8 4f 04 c9 a9 3f
       0.117529029245 0.0503617618055
000330 9c 46 e4 ee 5f 47 bf bf ec fd 74 db 78 c5 c9 3f
       -0.122182842086 0.201338870198
000340 13 56 0c 00 bc 41 c0 bf d9 f8 82 58 9c 70 a6 bf
       -0.127006053947 -0.0438279016539
000350 9f 4d 10 62 e2 84 a8 3f 13 d4 4a 75 ad 0d b2 3f
       0.0478888268191 0.0705212031706
000360 f7 b2 59 5f 14 6d a1 bf cf d9 77 14 b9 28 a6 3f
       -0.0340353361506 0.0432794415937
000370 e2 c5 3f b4 57 63 8f 3f 02 6c 00 db 79 cb 96 bf
       0.0153261997111 -0.022260574333
000380 69 46 e9 f2 03 6b b0 3f 15 b5 d1 5d df 97 ae 3f
       0.0641329258008 0.0597524454141
000390 00 dc 8b f4 52 b4 c7 3f db a8 43 bb f0 83 9e 3f
       0.1851905531 0.0298001875207
0003a0 8b 2d 0a 05 64 85 91 3f d4 57 c4 09 75 25 92 3f
       0.0171104076458 0.0177210128032
0003b0 0f 24 44 c5 88 28 a8 3f 4b aa 3a 96 0a 50 aa 3f
       0.0471842518619 0.0513919170747
0003c0 58 d8 52 f2 5b 81 b6 3f 54 fc 6a 60 79 97 cb 3f
       0.0879113642321 0.215560123519
0003d0 87 2d 17 2b 39 f4 75 3f 80 7f d4 c8 f3 92 a2 3f
       0.0053598626268 0.0362774069456
0003e0 1d 67 2a fb 8d 4c 5e bf 4e da 85 e5 e2 92 91 3f
       -0.00184930672973 0.0171618893232
0003f0 76 70 05 4c f9 96 c6 3f aa 8f f7 c8 fd 63 93 3f
       0.176482355232 0.0189361242209
000400 ac c5 ff 47 4a 1b 88 bf 13 58 9b 4d 98 cc c1 3f
       -0.0117708018515 0.139056241888
000410 d8 1a 2d 19 8b 13 b6 bf 0d 5a 17 e2 ce 8d 9b 3f
       -0.0862357078996 0.0269081426139
000420 e1 a6 a6 62 4c d2 b4 3f 93 af 4f 08 cf 0d 94 bf
       0.0813338986251 -0.0195839260886
000430 79 3b 61 92 80 39 7c 3f 3c a0 6a be 45 35 a6 3f
       0.0068907759033 0.0433751864378
000440 8e 10 0d 01 18 b5 c3 bf 08 be 72 dc 4a 83 c3 3f
       -0.153964043153 0.152444226876
000450 9b 28 58 c7 71 01 b3 3f cc c1 07 09 e2 9c b9 3f
       0.0742407905274 0.100050093846
000460 8d 2a 84 55 34 01 a5 bf d4 d7 f1 d8 c4 54 ae bf
       -0.0410248140707 -0.0592404856515
000470 71 f2 ef c6 45 fd cd 3f a1 e1 2f 39 b0 ca be 3f
       0.234291765344 0.120280279123
000480 65 ec 0a 85 bf 67 bd bf eb ad 5e e5 eb 5c a1 3f
       -0.114864320737 0.0339120595448
000490 62 ae cf 10 a8 31 7e bf e9 59 1c 74 16 8e 8d 3f
       -0.00737157488491 0.0144311670479
0004a0 78 a3 7c 7a f1 35 90 3f 22 5f 35 77 92 ee a4 3f
       0.0158307772646 0.0408826609152
0004b0 d4 f4 85 09 04 d5 a9 3f 98 0b 4e 58 52 74 b9 3f
       0.0504533063531 0.0994311776722
0004c0 09 b3 66 ee b3 1b 92 3f 71 a0 fd bd 11 d6 9e 3f
       0.0176838030108 0.0301134845935
0004d0 48 1f b3 a0 48 29 a9 bf c7 1a be a8 58 2d c6 3f
       -0.0491430946509 0.17325886001
0004e0 c7 7d 06 b4 79 81 b3 3f 14 36 ad 8d 50 d9 ac 3f
       0.0761943878665 0.0563454792924
0004f0 86 f9 6e 00 ab dd b9 bf 61 9c df ba 2d dd b0 bf
       -0.101038634878 -0.0658749181017
000500 93 32 75 3b 26 58 a7 3f 11 c7 7f 82 77 36 b7 3f
       0.0455944011288 0.0906748479463
000510 ef c1 ed 36 cf 67 a5 bf 97 7d 71 7c 49 b5 7b 3f
       -0.041807628112 0.00676468568335
000520 1d 39 fd c6 a7 1c b6 3f aa c7 8e 2f 7c 94 b0 bf
       0.0863747464002 -0.0647657028301
000530 4e 56 9e f1 8e 84 cb 3f a0 06 19 dd b5 e9 a2 bf
       0.214982860544 -0.0369393188853
000540 ea 44 b6 2e 0b 62 a2 bf 38 20 c6 b0 0c 4e bb 3f
       -0.0359042639276 0.106659691961
000550 14 4e 8c 7d e8 e6 b1 bf d9 9f 56 af 4c 14 a0 bf
       -0.0699296289934 -0.0314048732792
000560 60 0d f5 69 6a 39 c7 3f 87 97 54 ef 15 d0 ca 3f
       0.181439687478 0.209475271092
000570 c6 bb e3 b3 d4 24 d0 3f c4 45 b6 52 48 93 c4 3f
       0.252247977899 0.160744705569
000580 1d e4 09 55 24 cb d0 bf 77 45 27 64 8c 4c a6 3f
       -0.262398798986 0.0435527679689
000590 54 11 87 3b 11 43 c8 3f c5 fe 76 f9 e2 8a af 3f
       0.189546732012 0.0616064958117
0005a0 34 52 79 58 43 99 b5 3f f1 eb ba b1 03 b7 a3 3f
       0.0843698588372 0.0385056642967
0005b0 5e 52 c7 b3 a6 80 bc 3f 17 ae c6 f7 6f 2d d2 3f
       0.111338061229 0.284023277253
0005c0 d8 39 0b d4 49 b2 cd bf
       -0.232003429925
