models/s6ncmsAs6lwU/Theta_xy.npz (npz, 839322 bytes, 1 tensors)

data f8 [89130]
000000 46 ae eb fe a2 0d b4 3f cc a9 b8 8c 71 f8 a6 bf
       0.0783330795636 -0.0448642238883
000010 58 47 ee 80 cb 6e 99 3f 5b 56 e6 81 b7 41 b7 bf
       0.0248367116397 -0.0908465091837
000020 ce 75 11 4d bb a3 b1 bf a2 dc ea 06 1f 11 59 3f
       -0.0689045966296 0.00152996091826
000030 eb 38 93 64 f4 e5 94 3f cc 49 b3 46 61 a4 ba 3f
       0.0204084574114 0.104070739518
000040 47 c5 f4 37 f7 9f cc bf c1 cd c3 40 fa 59 c4 3f
       -0.223631765673 0.158995896934
000050 1c 3c 78 f6 27 f9 a8 3f 85 ed 49 f8 07 bc c2 bf
       0.0487759102217 -0.146363254771
000060 85 b6 19 d3 a3 cc c1 bf 70 81 f2 f9 d5 76 b1 bf
       -0.139057615353 -0.0682195410941
000070 df 7d 0e 65 d4 f5 7a bf 41 61 13 0e 6f 9e b0 3f
       -0.00658209768963 0.0649175080647
000080 0e b5 04 2c 57 de 9f 3f f2 42 61 88 54 1d 87 bf
       0.0311215992562 -0.0112864116783
000090 cd aa ec c4 e4 3f bb bf a7 c9 b5 ac 5c fe ab bf
       -0.10644368942 -0.0546750031307
0000a0 bf da b3 ba 97 c1 c8 bf 04 7f 88 e1 37 08 a1 3f
       -0.193407980121 0.0332658255395
0000b0 70 91 aa e0 0b ed b6 bf 23 6e f5 92 33 8a 9a bf
       -0.0895545409681 -0.025917821736
0000c0 ef 4f 0d 3e 42 87 9e bf 5c c1 c3 c6 68 07 c4 bf
       -0.0298128462194 -0.15647611337
0000d0 59 3a 86 b1 d8 4a ad 3f 1e 21 47 cf a7 5b aa 3f
       0.0572116581635 0.0514805260205
0000e0 32 9d bd ea 69 be 9b 3f d4 53 9a 21 d9 2d c3 bf
       0.0270935582661 -0.149836675079
0000f0 d1 c6 af 9b be 26 cb bf 8a 64 3b 09 5c 03 5d bf
       -0.212119890231 -0.00177082050225
000100 18 b4 58 84 e0 84 bd bf 83 a8 62 da c6 52 9b 3f
       -0.115308792411 0.0266829558174
000110 98 83 5a 62 4a ef 44 3f cb 2b 91 4a bd 47 99 bf
       0.000638877220542 -0.0246877266657
000120 99 65 a3 a2 7c 6e bf bf b6 91 8a a3 7c 72 ce 3f
       -0.12277964564 0.237868862013
000130 6e b3 ab cb d0 aa 81 bf 98 19 97 3d 49 4f b4 bf
       -0.00862658616594 -0.0793348098151
000140 fa 50 3e 15 85 d2 b1 bf d7 eb 67 a8 da 2e c5 bf
       -0.069618528067 -0.165492374639
000150 2c 46 a7 f9 65 5d b0 bf dd e1 c8 07 0f 3d ba bf
       -0.0639251455789 -0.102494182015
000160 7d 84 fa 2f 8f e5 85 bf 7b 24 2e 11 f4 33 b0 bf
       -0.0106917559163 -0.0632927457756
000170 06 ec cb 61 b6 ed 88 3f 9b f6 86 08 74 ed d1 bf
       0.0121721504779 -0.280117996528
000180 1f 21 e0 9e ef 8d c1 3f aa b3 62 0d dd af d0 bf
       0.137144043518 -0.260733855316
000190 11 ca b4 79 9b d2 af 3f 49 3c 72 3e 81 43 5d bf
       0.06215368138 -0.00178611394384
0001a0 6c 21 20 a3 b2 2d 8a 3f e5 98 96 71 7b 71 af bf
       0.0127824741394 -0.0614126754911
0001b0 61 01 5a cb 38 ad 8a 3f e0 76 3f e3 a3 2a a3 3f
       0.0130257069643 0.037434693804
0001c0 87 72 37 bf b0 97 c5 3f 04 7d 9f f9 07 39 65 3f
       0.168691724174 0.00259067113528
0001d0 48 ac 9e 98 91 6f c6 3f e3 d0 d7 68 66 95 d1 bf
       0.175279807588 -0.274743654619
0001e0 33 59 00 73 52 2b a2 3f 6d f3 ae 3f bd d4 63 bf
       0.0354867711432 -0.00242077791833
0001f0 9a 3c b9 0e 73 b4 c4 bf 74 c8 b7 6d 90 d1 b5 bf
       -0.161756879987 -0.0852289455286
000200 8e f4 9d 28 f6 18 bf bf 80 c3 e4 b7 dd 9f c3 bf
       -0.121474633137 -0.153316225807
000210 76 65 a6 27 db 69 c3 bf 9b c0 a0 c9 92 a8 ab bf
       -0.151667971001 -0.0540204878929
000220 0a 33 a7 9f 61 97 82 bf 99 5d 18 5d f6 66 79 bf
       -0.00907779949639 -0.0062017081814
000230 1b 5e 4a b2 76 da 95 3f 12 60 7f 13 99 70 83 3f
       0.0213411852188 0.00949210730316
000240 e5 4d e7 70 41 0b c7 3f cd dd a3 3c c5 fa 73 bf
       0.180030994538 -0.00487782521872
000250 ce 53 18 31 84 25 d6 bf 78 fa c0 f1 02 2d 90 3f
       -0.346039817757 0.0157967052512
000260 40 3c e9 b6 95 4a ca 3f ce 5d 21 b1 ec a1 b5 bf
       0.20540114814 -0.0845020229766
000270 d8 e7 d6 98 b6 8f c1 bf cd c9 66 30 c3 5d b6 bf
       -0.137198280934 -0.0873682015579
000280 1c eb 5e 99 27 17 bc 3f 3c 59 e7 5d 70 aa c0 bf
       0.109728312439 -0.130201383449
000290 96 5c 9c 73 f1 de a5 3f d6 68 13 68 4d 25 c4 bf
       0.0427165464045 -0.15738837797
0002a0 c8 fd 16 81 7f 54 92 3f 5c 39 b6 0b 49 b9 d0 bf
       0.0179004595318 -0.26130891937
0002b0 22 c4 d2 50 20 5a 8c 3f c6 04 7a ad e6 8a a6 3f
       0.0138437771478 0.0440284811748
0002c0 ce 1b f2 7d 78 b0 a9 bf e7 cf c9 8f fc f3 ba bf
       -0.0501744893782 -0.105285439591
0002d0 ee c2 cb 55 2b 8c 9d bf d1 a3 fa 6e da b5 b4 bf
       -0.0288550158611 -0.0808998604722
0002e0 52 a2 ca 04 20 54 ca bf f3 0f db d0 2c e8 7c bf
       -0.205692293491 -0.00705735689343
0002f0 5d 10 94 52 05 a8 ca bf 31 38 60 13 68 04 b1 3f
       -0.208252587625 0.0664734885506
000300 02 78 e3 35 e2 96 c5 3f f6 12 91 f9 99 46 a0 bf
       0.168667103112 -0.0317886464259
000310 b0 2c e8 d8 d6 17 d4 bf 3d 58 0a 02 bc a5 b5 3f
       -0.31395503218 0.0845601563436
000320 df bc 71 ad 9d fa b4 bf fd f7 f5 11 03 47 92 3f
       -0.081949095578 0.0178490142548
000330 3c cf 03 4e 6f 56 90 bf b1 c8 ab 12 aa 20 aa 3f
       -0.0159547225348 0.0510304591934
000340 7f e7 42 ab e6 45 c8 bf 03 f7 0b 79 d3 e1 c7 3f
       -0.189633210777 0.186579164605
000350 35 ec 68 c0 b3 d6 b1 bf 6a 25 a9 e2 9e 19 ba bf
       -0.0696823448897 -0.101953440034
000360 5b f7 a5 a0 5d 9f d0 bf 37 ea 1d e2 66 28 85 3f
       -0.259726912387 0.0103309667354
000370 89 1c 70 2d 80 32 b3 bf 81 ae 89 f1 68 8f b9 bf
       -0.074989329427 -0.0998445119564
000380 60 1e 9c 61 c4 e1 c6 bf 6e 8b 14 77 a4 9a b6 3f
       -0.178764865552 0.0882971564029
000390 f2 5d 1d 6d 13 18 be 3f 2e c9 1c c5 2c bd ae bf
       0.117554868831 -0.0600370398155
0003a0 2d ec e4 32 26 f9 aa bf 33 8e 5b 98 fe d8 9d 3f
       -0.0526821076514 0.0291480808727
0003b0 43 ab db bf 46 ea ab bf e3 fe ac 5b c7 a9 8c 3f
       -0.0545217618181 0.0139957022526
0003c0 40 07 e6 38 24 51 ca 3f e2 58 21 62 79 24 ce bf
       0.205601241858 -0.235488102832
0003d0 39 cc 47 fc 40 55 a3 bf 82 1b 04 d1 a8 9f aa 3f
       -0.0377598102531 0.0519993548533
0003e0 d1 66 13 79 1b a7 b2 bf 7d a6 27 5e a6 1a 96 3f
       -0.072862355289 0.0215860362022
0003f0 81 48 07 f3 a9 59 bb bf 03 17 aa 79 32 47 75 3f
       -0.106836911996 0.00519485203643
000400 42 64 ad 6b 22 d8 b9 bf 6b a4 f1 4a 59 9e c0 bf
       -0.100954200066 -0.129832421869
000410 f9 0c ff 8c 37 b0 6a bf e0 e2 ee 96 f4 7d 92 bf
       -0.00325785493621 -0.018058606827
000420 d3 12 88 f4 b3 fc a0 bf e4 e1 09 ec 85 da 8b bf
       -0.0331779705048 -0.0136003935488
000430 bb 26 b4 cf a2 3d 46 3f 69 1b ec ef 1f 0c bd bf
       0.000678734300352 -0.113466259074
000440 49 42 9f 4c 07 35 6f 3f 85 95 46 3b 6a 44 b5 bf
       0.0038094656529 -0.0830751795498
000450 fd d1 d3 51 12 21 ad bf 48 c3 e6 ad f0 ce 96 3f
       -0.0568929409873 0.0222737890378
000460 26 5c b8 3b 85 69 c2 3f e9 fe e9 82 60 08 a0 3f
       0.143845228348 0.0313139114196
000470 a9 79 72 06 e3 97 b2 bf ef 86 46 82 65 fc cc bf
       -0.0726301089039 -0.22645253049
000480 90 6a ad 7b 2e 14 a6 bf 61 b5 bd 72 b1 b9 72 bf
       -0.0431227231954 -0.00457162204462
000490 65 d6 1f 57 09 86 b2 bf 19 b4 47 cb 8f 81 b5 bf
       -0.0723577344614 -0.0840082045831
0004a0 09 04 ad bf de 74 77 bf f1 c4 56 7d 34 32 ad 3f
       -0.0057266903994 0.0570236590387
0004b0 a0 06 d8 c3 7a 4b 8e bf 34 e1 4a 9e e7 e5 a1 bf
       -0.0147924033181 -0.0349571591118
0004c0 db cd ca 35 5d e1 b1 bf b1 64 44 d7 c5 2b cc bf
       -0.0698450332955 -0.220085840331
0004d0 25 27 4a 9d a8 ca a9 bf 28 03 9d 80 13 5a ba bf
       -0.0503742877964 -0.102936953449
0004e0 5a b1 13 28 32 8a be 3f b0 35 db aa 14 4a b9 bf
       0.119296202454 -0.0987866322641
0004f0 f9 d3 e1 ec 1c 02 a9 3f 65 38 d4 18 ef fc b4 bf
       0.0488442458308 -0.0819844661348
000500 f5 ac f7 cb 87 fe ab bf 47 ad 2f e3 50 98 ca bf
       -0.0546762882694 -0.20777331441
000510 5e 10 ff 9b 60 dd 67 3f 5f b5 95 e5 da c1 85 bf
       0.00291317814842 -0.0106236554445
000520 04 7e d4 ff 6e 60 92 3f a0 39 b1 5f e5 34 b4 bf
       0.0179459899565 -0.078932128775
000530 ba 0f e9 98 3c 0b ab bf b0 a4 2c 9a c6 05 c2 bf
       -0.0528201042803 -0.140801263123
000540 12 aa 8b 6e ff cb cc 3f 0e d9 1f 58 e8 dc b8 3f
       0.224975518205 0.0971207823894
000550 69 4f f0 f9 5e 00 c5 bf 91 4d 5a 33 0d b2 95 bf
       -0.16407382206 -0.0211870253175
000560 2f 58 ce 65 29 d8 c5 bf 09 c2 37 7e 70 7d ab 3f
       -0.170659231863 0.0536914018702
000570 1f 81 0e 11 86 4b ad 3f 15 61 62 d2 88 c0 90 3f
       0.0572168250867 0.0163594606789
000580 90 17 e9 0b 2f 41 c6 bf 1e 27 92 c7 d7 cc 91 3f
       -0.173864250961 0.0173829761084
000590 ed c6 50 97 8a fb 76 3f d7 c1 33 5a 25 45 b1 3f
       0.00561098229541 0.067461332819
0005a0 67 dc 56 d3 71 26 c0 3f fd f1 80 47 94 d9 6d 3f
       0.126173237031 0.00364378891757
0005b0 70 55 38 34 e4 b1 c6 bf 4e 41 36 2d ef 96 ad bf
       -0.177303815363 -0.0577921621981
0005c0 32 26 7a 48 18 6a a3 bf 5f b7 25 47 95 64 b2 bf
       -0.0379188145135 -0.0718472765636
0005d0 5e 9b 7f f6 53 6b a5 3f f3 9d 21 fb 26 c5 80 3f
       0.0418344725038 0.00818853811161
0005e0 89 32 b5 15 fc ee b3 bf a9 7d 0c fc 91 02 b6 3f
       -0.0778653672216 0.0859767189363
0005f0 e4 ba 8f 09 a7 e2 c7 3f 15 cf 62 d6 3e 30 b9 bf
       0.18660438506 -0.0983924172786
000600 46 0b 68 76 ee 78 b3 3f 3a 0d a2 93 0a 31 a4 bf
       0.0760640181616 -0.039436655542
000610 b5 e4 76 ac 5e e3 a5 3f fc 21 2d 4a c0 1b c0 bf
       0.0427503190544 -0.125846897334
000620 eb d6 5c a0 9c 4e ab 3f 8f 78 6c 41 7d 77 6b 3f
       0.0533341356044 0.00335287536599
000630 cd ef 9e 7f 06 8b a0 bf 3c cc 64 c0 53 72 b7 3f
       -0.0323106795108 0.0915882439338
000640 c0 de bd ea 81 8b 70 3f 14 6d 84 c2 51 4b cf 3f
       0.00403929470837 0.244486064891
000650 0c 39 fa db f4 d3 bc bf 6b 17 67 27 80 a5 c9 bf
       -0.112609199243 -0.200363177528
000660 83 e0 03 91 2a 2c a6 bf ae 99 cd a8 3a 39 ca 3f
       -0.0433057119389 0.204871494697
000670 79 80 be 50 dc 37 d6 bf ea 21 43 13 54 70 93 bf
       -0.34715946088 -0.0189831864125
000680 7b 11 1f e8 89 b8 8c bf 5f f5 fa 7d 68 a3 60 3f
       -0.0140238546336 0.00203104408851
000690 d1 68 ed 12 d0 4d a9 bf 10 a1 fa 21 36 6a b5 bf
       -0.0494217894654 -0.0836519082028
0006a0 9f cb 2a f7 a1 88 90 bf 5c b3 66 29 a5 1c b9 bf
       -0.0161462123021 -0.0980933404996
0006b0 27 9a 4a ee ee b0 bf 3f b5 f9 4c 1a 50 ad c9 bf
       0.123793538262 -0.200601590006
0006c0 02 68 e2 6b db 80 cb bf 68 e1 15 2b ca 7f 91 3f
       -0.214869907072 0.0170890415952
0006d0 e5 4a c0 ac 58 98 a9 3f 96 d8 ac 95 ee 5e b0 bf
       0.049990435684 -0.0639485469263
0006e0 df b9 07 56 2b 0d bf 3f fa ab 3d f5 7c 64 a1 bf
       0.121294697288 -0.0339697884909
0006f0 6e 7b 98 d6 78 e3 ba bf 9c 65 77 fd 3d 5a b0 bf
       -0.105033447639 -0.0638769859137
000700 89 7e a2 3e 86 d5 c4 3f fb 8b 88 90 ce 16 bc bf
       0.162766247352 -0.109723005568
000710 ed bb 05 c6 91 da 9e 3f ef c6 c0 a3 2b ac 92 3f
       0.0301306511987 0.0182349032113
000720 5e 67 4d ea 8c 59 a8 bf 11 d9 cd f9 7c f0 ce bf
       -0.0475582157148 -0.241714117026
000730 5b 0e 4e 7e 65 5a b3 bf dd ee 9e 13 31 1e a8 bf
       -0.0755980904924 -0.0471053444339
000740 02 be 6a d7 85 76 9e bf d7 6a bd 4f c8 ec 85 bf
       -0.0297490036707 -0.0107055329642
000750 d3 f6 91 23 fa 08 5c 3f 87 a4 71 dc c4 3a b9 bf
       0.00171112468368 -0.0985529936021
000760 6f 67 32 b4 2f ff ad bf d8 90 f2 29 3d 48 c1 bf
       -0.0585875422923 -0.135017056925
000770 32 b5 f9 3c 6b d1 af bf 32 8b 31 26 d0 51 8d bf
       -0.062144614404 -0.0143162023216
000780 57 e1 7c f1 e1 a9 ab bf 48 eb 5f 2d 4b 2a a7 3f
       -0.0540304763112 0.0452445500268
000790 1b 03 ac 8c 77 57 b4 bf 2c 60 b4 3b 96 aa ae bf
       -0.0794596403539 -0.0598952243692
0007a0 a3 85 ef dd 27 af c0 3f 48 fb 16 13 5f 71 9e bf
       0.130345328681 -0.0297293525125
0007b0 23 e2 b7 a8 60 75 bd bf ed 70 e9 96 a7 55 b7 bf
       -0.115072289649 -0.0911507361829
0007c0 69 18 d4 b5 10 47 c7 bf 25 d3 57 bb 12 e3 96 3f
       -0.181856240066 0.022350590405
0007d0 c3 b9 15 5e 90 95 c3 bf eb d0 41 03 11 eb c6 3f
       -0.15300182909 0.179048658934
0007e0 7b 6f 40 db 79 53 80 bf cd 27 0d 56 65 37 83 bf
       -0.00797171783784 -0.00938300293787
0007f0 20 00 ba 3f bb 24 84 3f 74 f7 ba 1c 03 89 a6 bf
       0.00983568466404 -0.0440140698024
