models/3yKbqfm8e32E/Theta_yz.npz (npz, 1218 bytes, 1 tensors)

data f8 [25]
0	0xbfe714673570c535	-0.721240620018
1	0xbfd63d78e2e6b86d	-0.347501966079
2	0xbfe4d7e3eb41d489	-0.651353797423
3	0xbfada1390c80a985	-0.0578706577074
4	0xbfd57b98e780d6aa	-0.335668779447
5	0xbfd527874a905db8	-0.330537627045
6	0xbfc669f53fdd2707	-0.175108581718
7	0xbfc9fe1790445ed0	-0.203066773837
8	0x3fc82e8a6f44a894	0.188920311289
9	0xbf8cdac18789dff7	-0.0140891189087
10	0x3fd7c3450043b342	0.371293306597
11	0xbfd541dc3ad3d4da	-0.332144792031
12	0xbfbbb0eb0e3b3515	-0.10816830728
13	0xbfb1cb42dc9cb29c	-0.0695077694515
14	0x3fb43b0d002de212	0.0790260434568
15	0xbfd6f14c17adcf80	-0.358477614521
16	0x3f8b8017b6cd6190	0.0134279110586
17	0xbfac20ab432ac2a4	-0.0549367446414
18	0xbfc30bedd083a41d	-0.148801543058
19	0x3fc4dfd630a9016d	0.163080953369
20	0x3fbd94b729ce60c6	0.115550468165
21	0x3f93cd8100fdfff3	0.019338622747
22	0x3fc6b6744ed3b36e	0.177443064203
23	0x3fc17f85fdd113be	0.13670420545
24	0xbf90f4b40816eb6d	-0.0165584688127
