models/Theta_yz.npz (npz, 1724 bytes, 1 tensors)

data f8 [73]
0	0xbfe7b77f6b249c51	-0.741149625076
1	0xbfdf0fabb9659495	-0.485331469585
2	0xbfe42725311248b9	-0.629778476565
3	0xbfbcf768241d3ffe	-0.11315012819
4	0xbfd4d7cdd9d71a0a	-0.325671637282
5	0xbfdb5c528bb43b15	-0.427509914808
6	0xbfb8a0118d0ec0d9	-0.0961924523715
7	0xbfb82dd032f7e04b	-0.0944490551409
8	0x3f916777773ab348	0.0169962564966
9	0x3fda3f1a8d66b987	0.410101545417
10	0xbfc287eb125d019a	-0.144772895781
11	0xbfd166ea21a80b99	-0.27190640723
12	0xbfb7edc5b1ade13f	-0.093471866492
13	0xbf9beda5e00ab444	-0.0272737424845
14	0x3fa8dee0346a1adb	0.048575407408
15	0x3f6557db1b28bc74	0.00260536951216
16	0xbfc33787425220df	-0.150132090934
17	0xbfe46d74eeaf97a8	-0.63836142176
18	0xbfb035ac608c90fc	-0.0633189902988
19	0xbfb4bf5abe6d3166	-0.0810448374661
20	0x3fbd840c25f57f6b	0.11529613425
21	0xbfc65dd2ee2ed46f	-0.174738279629
22	0xbfd0430d1da20104	-0.254092482508
23	0x3fa2681a36039b8b	0.0359504881797
24	0x3fc141964dd47e50	0.134814060214
25	0xbfa05c5ac22f2456	-0.0319546091119
26	0x3fc01dd30feaf1a4	0.125910170338
27	0x3fa8cf0167c94736	0.0484543265526
28	0x3fde088863f4b9cf	0.469270799268
29	0x3f9c2077ee6ded75	0.0274676074291
30	0xbf9b357c5dab2d92	-0.0265712196513
31	0xbfc0f5d9624bb8aa	-0.132502720829
32	0xbfcd0408549814fb	-0.226685563379
33	0x3fc264e9d8dda8e1	0.143704634563
34	0x3fc216e1fe7e847f	0.141323327317
35	0x3fa17e8ac06c42b5	0.0341685638324
36	0xbf7464b05a8b0e97	-0.00497883690031
37	0xbf9b01027dd04449	-0.0263710393229
38	0xbfb19766d9ed8b78	-0.0687164575625
39	0x3fad2f4dc1a3b7c9	0.0570015238644
40	0x3fb484569edbdb11	0.0801443231429
41	0x3f9832b7e68f3159	0.0236309751961
42	0xbfa5c3915d471b0c	-0.0425076891293
43	0xbfb5a93ed1950be0	-0.0846137296367
44	0x3fa003c7c960411d	0.031278842289
45	0x3faec8b61dd7929b	0.060125056403
46	0x3f79eacafa3aca50	0.006327431565
47	0x3fa82c6d8283b4b5	0.0472139570064
48	0x3f9184462c168110	0.0171061481866
49	0xbfbab26c5ce01a3e	-0.104285023379
50	0x3f9db7f92647f63f	0.029022114717
51	0x3fbfb0374842c642	0.123782591955
52	0x3faa8eb8c1493262	0.0518701301522
53	0x3fbf8d7fbe121e5a	0.123252853302
54	0x3fba170b690fabb1	0.101914132261
55	0x3fbbe8ff68d72b57	0.109024012657
56	0xbf8a27ab7e4275b3	-0.0127709768206
57	0x3f7060bce91b2370	0.00399850648109
58	0x3fc597baa6b0be61	0.168692904846
59	0x3fb130d49d4186f1	0.0671513446737
60	0x3fc36661b446fdb2	0.151561940218
61	0x3fab423cd3603b71	0.0532397277858
62	0x3fc4250e338e2a1a	0.157380843328
63	0x3fa44243437421ee	0.0395680446473
64	0x3f863a41600d1bf9	0.0108533008039
65	0x3fa9beea5f929add	0.0502846948305
66	0x3fae35d71c997eb0	0.0590045187389
67	0x3f60a30d887779e2	0.0020308746641
68	0x3f7ca01094fa1aa5	0.00698858716317
69	0xbfaee6f33a2ecd9d	-0.0603557594799
70	0x3fc026aeb12d87ec	0.12618049289
71	0x3fbfbb690ad7d6d9	0.123953404567
72	0xbfc441718d09d935	-0.158247178904
